…
    Xet Storage is enabled for this repo, but the 'hf_xet' package is not installed. Falling back to regular HTTP download. For better performance, install the package with: `pip install huggingface_hub[hf_xet]` or `pip install hf_xet`



    model.safetensors:   0%|          | 0.00/268M [00:00<?, ?B/s]


    Some weights of DistilBertForSequenceClassification were not initialized from the model checkpoint at distilbert-base-uncased and are newly initialized: ['classifier.bias', 'classifier.weight', 'pre_classifier.bias', 'pre_classifier.weight']
    You should probably TRAIN this model on a down-stream task to be able to use it for predictions and inference.





    DistilBertForSequenceClassification(
      (distilbert): DistilBertModel(
        (embeddings): Embeddings(
          (word_embeddings): Embedding(30522, 768, padding_idx=0)
          (position_embeddings): Embedding(512, 768)
          (LayerNorm): LayerNorm((768,), eps=1e-12, elementwise_affine=True)
          (dropout): Dropout(p=0.1, inplace=False)
        )
        (transformer): Transformer(
          (layer): ModuleList(
            (0-5): 6 x TransformerBlock(
              (attention): DistilBertSdpaAttention(
                (dropout): Dropout(p=0.1, inplace=False)
                (q_lin): Linear(in_features=768, out_features=768, bias=True)
                (k_lin): Linear(in_features=768, out_features=768, bias=True)
                (v_lin): Linear(in_features=768, out_features=768, bias=True)
                (out_lin): Linear(in_features=768, out_features=768, bias=True)
              )
              (sa_layer_norm): LayerNorm((768,), eps=1e-12, elementwise_affine=True)
              (ffn): FFN(
                (dropout): Dropout(p=0.1, inplace=False)
                (lin1): Linear(in_features=768, out_features=3072, bias=True)
                (lin2): Linear(in_features=3072, out_features=768, bias=True)
                (activation): GELUActivation()
              )
              (output_layer_norm): LayerNorm((768,), eps=1e-12, elementwise_affine=True)
            )
          )
        )
      )
      (pre_classifier): Linear(in_features=768, out_features=768, bias=True)
      (classifier): Linear(in_features=768, out_features=2, bias=True)
      (dropout): Dropout(p=0.2, inplace=False)
    )



## 6. Define Training Arguments and Trainer

Next, I'll configure the training parameters and create a Trainer:


```python
# Define training arguments
training_args = TrainingArguments(
    output_dir='./results',          # Output directory for model checkpoints
    num_train_epochs=3,              # Number of training epochs
…
    num_labels=2  # Binary classification: 0 for fake, 1 for real
)

# Move model to device (GPU if available)
model.to(device)
```


    pytorch_model.bin:   0%|          | 0.00/62.7M [00:00<?, ?B/s]


    Some weights of BertForSequenceClassification were not initialized from the model checkpoint at huawei-noah/TinyBERT_General_4L_312D and are newly initialized: ['classifier.bias', 'classifier.weight']
    You should probably TRAIN this model on a down-stream task to be able to use it for predictions and inference.





    BertForSequenceClassification(
      (bert): BertModel(
        (embeddings): BertEmbeddings(
          (word_embeddings): Embedding(30522, 312, padding_idx=0)
          (position_embeddings): Embedding(512, 312)
          (token_type_embeddings): Embedding(2, 312)
          (LayerNorm): LayerNorm((312,), eps=1e-12, elementwise_affine=True)
          (dropout): Dropout(p=0.1, inplace=False)
        )
        (encoder): BertEncoder(
          (layer): ModuleList(
            (0-3): 4 x BertLayer(
              (attention): BertAttention(
                (self): BertSdpaSelfAttention(
                  (query): Linear(in_features=312, out_features=312, bias=True)
                  (key): Linear(in_features=312, out_features=312, bias=True)
                  (value): Linear(in_features=312, out_features=312, bias=True)
                  (dropout): Dropout(p=0.1, inplace=False)
                )
                (output): BertSelfOutput(
                  (dense): Linear(in_features=312, out_features=312, bias=True)
                  (LayerNorm): LayerNorm((312,), eps=1e-12, elementwise_affine=True)
                  (dropout): Dropout(p=0.1, inplace=False)
                )
              )
              (intermediate): BertIntermediate(
                (dense): Linear(in_features=312, out_features=1200, bias=True)
                (intermediate_act_fn): GELUActivation()
              )
              (output): BertOutput(
                (dense): Linear(in_features=1200, out_features=312, bias=True)
                (LayerNorm): LayerNorm((312,), eps=1e-12, elementwise_affine=True)
                (dropout): Dropout(p=0.1, inplace=False)
              )
            )
          )
        )
        (pooler): BertPooler(
          (dense): Linear(in_features=312, out_features=312, bias=True)
          (activation): Tanh()
        )
      )
      (dropout): Dropout(p=0.1, inplace=False)
      (classifier): Linear(in_features=312, out_features=2, bias=True)
    )



## 6. Define Training Arguments and Trainer

Next, I'll configure the training parameters and create a Trainer:


```python
# Define training arguments
training_args = TrainingArguments(
    output_dir='./results',          # Output directory for model checkpoints
    num_train_epochs=3,              # Number of training epochs
    per_device_train_batch_size=16,  # Increased batch size since TinyBERT is smaller
…
